day1/best_coords_model.pth (torch, 534968 bytes, 8 tensors)

block1.0.weight f4 [256, 2]
00000000: 3f6d 1c3f fe24 223f d72c 893e 8fe2 81be
00000010: f767 c93e 6ed3 afbe b4fc 6e3e ca83 2b3c
00000020: d240 d63d 99f2 113f 1f4a ce3e ab64 01bf
00000030: 61b4 d3be c958 8abd be5f 583e 3628 ed3e
00000040: 1f1e 2c3f 62ce 95be 60af c73e f67b fc3d
00000050: fdb5 3b3e 5501 a6be f6de b9be 2a5b 3b3f
00000060: 216b 5a3e 27ae a93d 0d29 e5be fbca 2ebf
00000070: c8b0 17bf a8c1 88be d25d 183f f6a2 aebc
00000080: c8d6 b7be cbf8 043f 41b3 4d3f e21c a33e
00000090: 768f 3d3f 2ce6 163f da1c 4c3e 944a 28be
000000a0: 1d2f 31bf bae0 b4be 4075 3fbc 531e 18bf
000000b0: 118b 333e 30e6 173e 6033 2f3f f312 26bf
000000c0: 5452 b3be 5488 0c3f 082b 513f f2c6 a43e
000000d0: d346 97bc 5b96 83be 7646 c7be 951d 283f
000000e0: c125 993e 7f65 2fbf 5959 4dbf 69be 2abf
000000f0: b263 e23e a3ba 1b3e ff27 1b3f fc67 993e
00000100: 425e c8be 2a9b 3b3f b08e cf3e 352a bb3e
00000110: 6f69 fabd 3bab 46bf 72e8 0fbf 6127 49bf
00000120: f1cc 5a3e 6b8c 6ebe 156d 913e 1d7f 963d
00000130: 8a0e 31bf e63a 8cbc 2a8a 283f 8f26 01bf
00000140: bd5a bc3e 00d1 663e 44a1 283f 2a60 f63e
00000150: 1831 20bf abe2 33bd feb0 a53d 4c92 653e
00000160: b87e 04bf 8373 183f 6aa0 3fbf d19d 29bf
00000170: 658c 15bf 00ec 9bbc 6798 17bf 391b 36bf
00000180: 0810 823d 8aad ee3e 8793 6b3e a844 adbe
00000190: 62bc 11bf 467e afbc 58c1 17be 3c9e 4ebf
000001a0: eb7f e23e d1b6 a93e 52c4 31be 067e 5c3e
000001b0: 3cc9 263f 2a47 06bf 9b82 14bf 1f14 df3e
000001c0: 1312 0abf 110c 56be e7a9 c63d 4ff9 093f
000001d0: 0e20 293f 7312 323f 6dad 0e3f 43a4 0abf
000001e0: 5f8a 163f eaf1 e03e 4b84 163f 305a d3be
000001f0: 87d8 26bf 477a 0f3e db48 133e 22d1 a4be
00000200: 4f83 653d ab4d 193f 1987 3dbf 9f3f 50bf
00000210: 56fd e0be 84f4 e63d caea 9a3d 86a8 113e
00000220: 1d87 70bc 997e d5be 2906 173d 4dcd b43e
00000230: a141 e7be e8d3 e4be c196 003f 4a11 58be
00000240: f02e 40bf a18e 63be 4d0d fabe 3316 2abe
00000250: f580 693d cf82 23bf 8170 143f ba6f fc3e
00000260: ac33 64be e9da aa3e 5899 adbe 700d 2a3f
00000270: 3693 283f ac9c a63e 9c0f 71be b642 233f
00000280: 7e94 a43e b446 c23e 1293 81be 4c6b 3abf
00000290: 1b52 2cbf 8408 e2be 484a 8abe 0294 51bf
000002a0: 3938 763e c2a4 43be cce3 38bf 11e1 0d3f
000002b0: 6e9b b13e 16c1 873e 3245 ee3e fc50 863e
000002c0: e7b4 f5be 8369 3c3f 60a9 063e db40 4f3e
000002d0: 5e64 e63e b069 7cbe a239 0d3f bc92 03bf
000002e0: c8f5 bfbd 204f 863d d9d7 ffbd 9215 263f
000002f0: f306 adbe e929 32bf b2be 3dbe d637 1abf
00000300: fb02 293f b94a 27bf 42a1 01bf 867a 2f3f
00000310: 6e74 1c3f c324 a03e 8613 98be 9f4d adbe
00000320: 86c3 ca3e 89e8 dbbe f559 b73e 7d71 7cbe
00000330: 5033 28bf 9b6f 823e 529b 01bf f4af 313f
00000340: 1bcb dc3e 6358 3f3e 2834 8e3c 74c9 b0be
00000350: 1373 c53e e7b6 c2be 30ff 293f f287 e93e
00000360: 30da 383d 3b70 e13e 8ada 1ebf 13ce 2bbf
00000370: ce52 87be 698e 103f d313 14bf 52a2 20bf
00000380: 254e 0f3f a303 ad3c 09b3 173d c11f 08bf
00000390: e54b 973e 36c9 a5ba 610a ec3e a7d4 ffbe
000003a0: bcfc 0c3f ee69 283e b87c fe3d 07f4 6abe
000003b0: 6e3b d7be ced4 c0bd 2a4a 303f c18f 60bd
000003c0: 72bd 213f 59fa 613d cf49 753e da07 a4bd
000003d0: 30d3 b53e 77fa afbe 20d9 b0be 2191 c63e
000003e0: 0e7c 513e 5924 273f 5992 e0bd a592 3abf
000003f0: d392 06bf c626 4fbe d64a 533d ca34 e7be
0.61104196 0.63337696 0.26792023 -0.25368163 0.3933713 -0.34340996 0.23338586 0.010468433
0.10461582 0.570108 0.40290925 -0.5054423 -0.41348556 -0.06755216 0.21130273 0.4631974
0.6723346 -0.2925902 0.39000988 0.12328331 0.18331142 -0.3242289 -0.36302918 0.7318598
0.21329929 0.0828517 -0.44757882 -0.68278474 -0.5925412 -0.26710248 0.5951816 -0.02131794
-0.35906053 0.5194213 0.80351645 0.31857973 0.7404703 0.58944964 0.19932881 -0.164347
-0.69212514 -0.35327703 -0.011685669 -0.5942127 0.17533518 0.14833903 0.6843777 -0.64872664
-0.3502375 0.5489552 0.81706285 0.32183033 -0.018466389 -0.2570065 -0.38920945 0.6567014
0.29911616 -0.68514246 -0.8021446 -0.6669679 0.44216686 0.15207915 0.60607904 0.29962146
-0.39134413 0.73283637 0.4053855 0.3655564 -0.12227141 -0.77605027 -0.5621406 -0.7857571
0.21367241 -0.23295753 0.28403535 0.07348464 -0.6916281 -0.017117929 0.6583582 -0.5044946
0.36787978 0.22540665 0.6587107 0.48120242 -0.6257491 -0.04391734 0.08090399 0.22419089
-0.5175586 0.59551257 -0.7485415 -0.66256434 -0.5841735 -0.019033432 -0.5921692 -0.7113529
0.06350714 0.46616775 0.23005496 -0.33841443 -0.56928074 -0.021422517 -0.14819849 -0.80710196
0.4423822 0.3314729 -0.17360047 0.21532449 0.6515081 -0.5245234 -0.5801179 0.4357004
-0.5393383 -0.2090304 0.09700375 0.5389604 0.66064537 0.695594 0.55733377 -0.54156893
0.5880489 0.43934566 0.58795613 -0.41279745 -0.65174145 0.14011489 0.14383261 -0.32190806
0.05603343 0.59884137 -0.7403427 -0.8134708 -0.4394328 0.112771064 0.07564314 0.14224443
-0.014680651 -0.4169815 0.03687111 0.35312882 -0.45167258 -0.44692922 0.5023003 -0.21100345
-0.7507162 -0.22222377 -0.48838273 -0.16610031 0.05700775 -0.63871473 0.5798417 0.4930399
-0.22285336 0.3337014 -0.33906054 0.66426754 0.65849626 0.32541406 -0.23541111 0.6377367
0.3214454 0.37944567 -0.25307518 -0.7281997 -0.67312783 -0.44147122 -0.27009797 -0.81866467
0.24044885 -0.19105819 -0.7222259 0.5542155 0.34688896 0.265145 0.46537167 0.2623366
-0.4798958 0.735985 0.13150549 0.20239584 0.4499845 -0.24649692 0.55166066 -0.51395774
-0.09373051 0.06558061 -0.124923415 0.64876664 -0.33794364 -0.695952 -0.18529776 -0.6024145
0.6602017 -0.6534839 -0.50636685 0.6854633 0.6111516 0.31278047 -0.29702395 -0.33848283
0.39602298 -0.42950848 0.3581082 -0.24652667 -0.65703297 0.25475773 -0.50627625 0.6940911
0.43123707 0.1868606 0.017358854 -0.34528697 0.38564357 -0.38030168 0.6640501 0.4561153
0.045129955 0.44030938 -0.62052214 -0.6711132 -0.26430362 0.564673 -0.5784275 -0.6274768
0.55978614 0.021119898 0.037035976 -0.5317345 0.2955009 -0.0012648467 0.46101668 -0.49966928
0.5507314 0.16446659 0.12426132 -0.22944652 -0.4203753 -0.09415589 0.68863165 -0.054824594
0.63179696 0.05517039 0.23953937 -0.0800931 0.35512686 -0.34370777 -0.34540653 0.387826
0.2045748 0.6528984 -0.109654136 -0.7288001 -0.52567786 -0.20229635 0.05158504 -0.45157462

block1.0.bias f4 [256]
00000000: 6d58 d23d e2e8 843e 2e51 853e aec1 32bc
00000010: bc07 963e 57f9 b2be 2369 f83c 5133 6c3d
00000020: 5a3c f7be 21c1 9e3e 86a4 083f 0a8a 86be
00000030: f5ca ba3e 2f2c 5f3e 0def 8fbe b7eb d1be
00000040: 1c2c a63e 873e 21be 5eca 0abe a803 cfbc
00000050: 2368 33bf 3ac8 f93e 6ead f2be 80c8 9cbe
00000060: 2ffc 18bf 93a5 c5be 5846 afbe 63f7 923d
00000070: b069 1ebf 1624 053f f9b6 2bbf a27f 1f3f
00000080: 58e9 26bf ac00 b8bd 3370 e3be 4a7b 8f3e
00000090: e84f 003f 2602 b83e 151b 0b3f 4e90 2abf
000000a0: ef9a 33bf be9a 13be d283 213e 75e0 09bf
000000b0: 76cf 93be 9bd0 09bf 8e80 2fbf 2644 9a3e
000000c0: a0f5 353e 13aa 57be 0fcf 0f3f 7b1f c23d
000000d0: 1f22 b13e 6726 94be 30b7 06bf a40d 16bf
000000e0: 0356 a3be de19 703e b2a4 a93e 1bc5 acbe
000000f0: ee89 243f 9e86 1c3e 0bbb edbe d6bb e03e
00000100: b934 4d3e 3456 c83e 1f2e f03e 8dac e0be
00000110: 3862 03be 7b73 c4bd 02a0 b6be 68a8 f73e
00000120: ec29 acbe 71f3 08be 1798 3bbe 85ce e8be
00000130: ea61 ccbb 04d3 0c3f 7ba2 3d3e 3b7a 51be
00000140: 1f3c 6ebd 0105 143e 6fd4 163f 1ce2 0e3e
00000150: 79b5 643e cc91 413e b083 a8bd d906 b9bd
00000160: 67d6 11bf 561f 2d3e 2446 b63d 332c cebe
00000170: 32a5 a13e 34fe b43e ecc2 c13e 63d8 8f3d
00000180: a74a 43be 78c9 50be f0a8 03bf 98ef 103e
00000190: 99ae 0fbd 31c8 183f b2e0 a23e ecfe 9b3e
000001a0: fad5 07be b170 d5be 97d2 a73e ad7a 11be
000001b0: f391 a3be 4c26 35bf 810b 2ebd c05a 15bf
000001c0: 8911 66bd b9a3 023f fff3 793e 3942 f4be
000001d0: 8b31 43be b165 7f3e 67f7 20bf 0923 1d3f
000001e0: 21d6 e43e 336d 47be fa81 bebe 6f87 de3e
000001f0: 0450 df3e 82c2 3dbd ec8f 0d3f 2427 033f
00000200: fbb4 173f e2a1 e2be 278f 9c3e a894 ba3e
00000210: e90c 7fbe 6b16 313d 1606 17bf 08ca f53e
00000220: 1b53 ad3e 4cec 403e 35c2 86bd 433c 21bd
00000230: a10a 34bf 5ed1 153e 218e 7dbe 46e7 0f3f
00000240: c829 103f 443a ca37 b4bd b33e 0a13 9cbe
00000250: ae7c 53be af9c 443e 17c4 0fbf b3ad 263f
00000260: aa94 e03e e34f 91be 69b2 433e e91b 10bf
00000270: 7f86 2bbf 5b1f ae3d 77f7 24bd e719 a2bc
00000280: 134a efbe 43a2 33bf a62a 973e 6343 cf3e
00000290: 1d7c fabe 0f6a e93e e063 093e 69d7 27bf
000002a0: 735b 25bf 4c41 0fbe 8c51 12be a79f 863d
000002b0: ee95 88bd b4c0 f13d 637a a1be 9b86 273f
000002c0: c6a8 f0bd 21cc 3ebe fe97 193f bfce 95be
000002d0: 0627 80be 784e b3bc f20b 13bf 0df0 cebd
000002e0: 26a6 c5be 0fb8 693d 61e9 683e a5a7 063f
000002f0: 2e68 50bd 3e5f b4be 73c4 eebc 3b88 ccbd
00000300: 3dd3 e43d 6a95 37bf f20e 8b3c 64e8 88bd
00000310: d12c 583d 0a37 f93d 2a23 7cbe 094b c9be
00000320: 84b3 d2be 0627 06be ca97 27be 38ed 003f
00000330: 2c59 a83e f7c9 7bbd 3fe9 32be 556e 22bf
00000340: d9ba 0ebf e57b f3be 34ec 5bbd 43cf 0e3e
00000350: c96b a43e 950e 26be 4858 9fbe 3938 113e
00000360: 644a ed3d fb61 913e 3ea5 ed3e 1270 603e
00000370: 2fae ddbe c07b 55be a180 0f3c 564f f03d
00000380: 0d9e 093d cf7c 513e 72e0 e73e 5764 3dbd
00000390: d989 babe acc2 fdbd 810a 7f3e 8737 2cbf
000003a0: 8eba 023f d036 903e 935e 793e 2176 03bf
000003b0: 102d a83e e557 d23e 8a36 59be 4eb4 023f
000003c0: b952 07bf 357b 1bbe 684c a53e b736 9fba
000003d0: e0d0 813e c9bf c5bd ed3e 34bf 089b 34be
000003e0: 68df be3c 6cc9 3a3e 9f94 0cbe 88c7 f7be
000003f0: f6b4 ef3e adf5 0f3f d33d 1dbf 1210 a5be
0.10270772 0.25958925 0.26038498 -0.010910435 0.29302776 -0.34955856 0.03032357 0.057666127
-0.48288232 0.3100672 0.5337604 -0.2627719 0.3648297 0.21794198 -0.2811207 -0.4100015
0.32455528 -0.15746509 -0.1355376 -0.025270298 -0.70080775 0.48785573 -0.4739794 -0.3062172
-0.597598 -0.38602886 -0.34233356 0.071760915 -0.61880016 0.5200819 -0.6707607 0.6230413
-0.65199804 -0.08984503 -0.4442154 0.2802375 0.5012193 0.3593914 0.543382 -0.6662644
-0.70158285 -0.14414498 0.15772942 -0.5385812 -0.28869218 -0.5383393 -0.68555534 0.30130118
0.1776948 -0.21060972 0.5617532 0.09478661 0.34596345 -0.2893555 -0.5262327 -0.58614564
-0.3190156 0.23447368 0.33133465 -0.3374413 0.64272964 0.15285727 -0.46431765 0.43893307
0.20039643 0.39128268 0.46910188 -0.43881646 -0.12830436 -0.09592339 -0.3566895 0.4837067
-0.33625734 -0.13374116 -0.18319736 -0.45470062 -0.006237258 0.55009484 0.18519013 -0.20456783
-0.058162805 0.14455034 0.589179 0.13953441 0.22334851 0.18903273 -0.082282424 -0.09034509
-0.56967777 0.16906485 0.08900097 -0.40268096 0.31571347 0.35350192 0.37844026 0.07023694
-0.19071446 -0.20389354 -0.51429653 0.14153898 -0.03507862 0.5968047 0.31812054 0.30467927
-0.1326522 -0.4168754 0.32777855 -0.14206953 -0.31947288 -0.7076156 -0.04249144 -0.583416
-0.056169067 0.5103107 0.24409483 -0.47706774 -0.19061868 0.24941136 -0.62877506 0.61381584
0.44694617 -0.1947525 -0.3720854 0.43462703 0.43615735 -0.046328075 0.5529773 0.512316
0.5926053 -0.44264132 0.30577967 0.3644154 -0.24907269 0.04323427 -0.5899366 0.480057
0.33852467 0.1884014 -0.06580011 -0.03936411 -0.7032872 0.14630648 -0.24761249 0.5621227
0.56313753 2.4107409e-05 0.3510567 -0.30483276 -0.2065303 0.19200395 -0.56158584 0.65108794
0.43863422 -0.2838126 0.19111027 -0.5629259 -0.670021 0.08502074 -0.040275063 -0.019787742
-0.46736202 -0.70169467 0.29524726 0.404811 -0.48922816 0.4558873 0.13417006 -0.65563065
-0.64592665 -0.13989753 -0.1428892 0.0657342 -0.06669222 0.11804333 -0.31538686 0.65439767
-0.11750941 -0.18632556 0.59997547 -0.29259297 -0.25029773 -0.021888003 -0.574401 -0.1010438
-0.38603324 0.057060298 0.22745277 0.52599555 -0.050880603 -0.35228914 -0.029146409 -0.099869214
0.11173103 -0.7171236 0.0169749 -0.0668495 0.052777115 0.12168701 -0.24622789 -0.3931506
-0.41152585 -0.13100824 -0.16366497 0.5036197 0.32880533 -0.061471906 -0.17471789 -0.63449603
-0.55753857 -0.47555462 -0.053692058 0.13946252 0.32113484 -0.162165 -0.3112204 0.14181603
0.115864545 0.28395066 0.46415132 0.21917751 -0.43296954 -0.20847988 0.008758695 0.11733882
0.033597995 0.20457767 0.45288426 -0.04623827 -0.36433294 -0.12390646 0.2490635 -0.6727223
0.5106591 0.2816682 0.24352483 -0.51352125 0.3284688 0.41082683 -0.21212211 0.51056373
-0.528606 -0.15183719 0.32284856 -0.0012147044 0.2535467 -0.09655721 -0.7040852 -0.17637265
0.023299888 0.18240899 -0.1372857 -0.48394418 0.4681775 0.56234246 -0.6142246 -0.32238823

block2.0.weight f4 [256, 256]
00000000: cb96 17bd d7e7 b93c c778 bf3c 1eaa 1cbd
00000010: ab88 7fbb 641c 573d fd10 03bd e573 ef3c
00000020: f444 d33c 6ef1 86bc 390e 5e3d c518 b23c
00000030: a199 593d 06bc eebb 3a45 9cbc 4715 0a3d
00000040: 06cf 543d f190 523d 70a8 da3c ba87 edbc
00000050: acf0 91bc 912e abbb d05f 6d3d e860 c4bc
00000060: 00b4 31b9 4b2a 73bd ec78 e1bc 4980 cebc
00000070: 4899 90bc c54b 363d 44e7 b83c 5e6d e73c
00000080: 664e 1dbd b025 bc3c 47ff 943c cda0 5a3d
00000090: 0630 943c b124 85bd 0965 0ebd 7b0a 1ebd
000000a0: 1401 b93c cb13 89bd cd4c 29bd c019 923b
000000b0: cf4e 3abd 985e f4bc 0aca 603d 0b75 85bd
000000c0: 2d49 d8bc af6c 78bc c9e7 a63c d4f1 513d
000000d0: 4315 51bd 30d1 24bc f052 213d 5a96 373d
000000e0: 654f eb3c ced9 553c 1622 ecbc 692e 513d
000000f0: 11a1 1fbc 4d23 4dbd 23ef 7bbd d702 f23c
00000100: e20f 8d3c 8772 aa3b 1ef3 243d f2c9 00bd
00000110: 6f0d c8bc 08a3 803d 32d9 603c b695 fabb
00000120: b355 15bd b9c4 383d 80ee 413d f004 eebc
00000130: b428 31bd b6f1 2bbc b21d 5bbd 647a 753d
00000140: c135 debc b32c 7dbd 0347 b8bc 2227 b5bc
00000150: a53f 5abc b2af 0f3b ae05 963b d6fb bbbc
00000160: 90e6 873a c34f ebbc 70c2 1abc 64f0 403d
00000170: eb68 6cbc ce1d 31bd aa42 f93c 29c9 b93c
00000180: 7784 413d 3a83 aebc 44c7 92bc f1c1 463c
00000190: 1b90 973c 2c52 33bd 24a4 523d 93ff 2e3d
000001a0: 3eb0 2b3d 8ee1 11bd c615 59bd 02f1 1d3c
000001b0: 1251 223d 72c6 d03b 9d59 76bd 5f6e 70bd
000001c0: 35f8 89bd ccf7 e53b f985 01bb 7d7b 02bd
000001d0: e9fc a4bc f8dd 153c 6461 a2bc 23bb c1bc
000001e0: 1a7c b13c 6b50 333d f6b7 a7bc a223 d1bc
000001f0: bbaa 9b3c 40eb 72bd feab 2cbd 5e22 7e3a
00000200: 521a 1f3b 0076 25b9 584d 7ebd a329 a03c
00000210: 0410 c5bc cc05 78bd 20b5 943b 8ebf f43c
00000220: 2f21 c43c fda7 2ebc c032 4a3d 6491 f8bc
00000230: da76 483d 47a7 893b 1faf 32bd 61a5 2fbd
00000240: b0e3 2fbd 910f 45bd f107 213a aef7 603c
00000250: fafe 3abd 2ec8 0a3d fb55 ccbb d6c3 bc39
00000260: 5cc5 3d3d c059 8b3a b47c b3bc 4782 22bd
00000270: 78cc 97bc f794 173c 10f9 59bd dc23 ad3b
00000280: c836 68bd 1a04 49bd 0140 a6bc 545c 1cbd
00000290: 3074 0cbd ef00 97bc e8b7 8ebd 1db6 363d
000002a0: 3f15 16bd b03c 153d 72cf 30bd 77a9 16bd
000002b0: 59eb 2b3d c964 993c 4428 743b 7f89 f7bc
000002c0: 169e 2d3d 5419 4abd fc8a fcbc 17ef 2bbd
000002d0: 2c3a 5cbd 6f0a 6cbb 69d3 76bd 5093 3e3c
000002e0: 68a2 c53b 52fe b23c 65dc 63bd 6732 443c
000002f0: 8b85 023d 18aa 0abd 6106 24bd 4e49 03bd
00000300: e304 11bd 6cb5 21bd 5577 583c fc50 5abb
00000310: b01b a43c 910a b33b 1ee2 583d 2691 06bd
00000320: 4cdd 85bc 4490 03bd 7864 75bc d0fd 91bd
00000330: 474a 953c bf48 153c 36ce a33c 3039 d33b
00000340: 5cef 4b3d 1009 513d cf6a 183c a0be 23bc
00000350: d7a1 15bc 3a4a d63a bcc2 efbc ea80 a33c
00000360: 287b f9bc ac0a 34bc f601 c4bc 47a8 4d3d
00000370: c651 27bd 9868 4ebc 2d36 31bd 8650 01bd
00000380: 849c 9e3b ff18 833b 0c0b 0e3b f68e d83c
00000390: 0c8b 0abd c276 a9bb 35cd 19bd f4f2 41bd
000003a0: bf3c 66bd 41b9 67bd 12f5 17bd 5ce7 e1bc
000003b0: bc4b 993c 70d6 d83c 8086 9fbb ed47 98bc
000003c0: 1ce1 053d c87d 623d 497b 03bd f983 9a3c
000003d0: 4008 55bc f445 5ebd 580a 683c ee0b 223d
000003e0: c9a1 2dbd e2fe 3cbd 0438 84bd c432 6dbd
000003f0: be69 8dbd 5b9d 403c 00cd 5dba 18a8 4fbd
-0.03700904 0.022693558 0.02337302 -0.038248174 -0.0038991373 0.05251731 -0.031998623 0.029230068
0.025789715 -0.016472545 0.054212783 0.021740327 0.053125028 -0.0072855977 -0.019075979 0.033711698
0.051955245 0.05140776 0.026691645 -0.028995384 -0.017814957 -0.005224057 0.057952702 -0.02397199
-0.0001694709 -0.059366506 -0.02752348 -0.025207656 -0.017651215 0.044505853 0.022571214 0.028250393
-0.038404845 0.02296719 0.018188132 0.053376008 0.018089306 -0.06501139 -0.034764323 -0.038584214
0.022583522 -0.06693228 -0.04133301 0.004458636 -0.045485314 -0.029830262 0.05488018 -0.06516465
-0.02640208 -0.015162631 0.020374196 0.051256016 -0.051045667 -0.01005964 0.039385736 0.04482112
0.028724382 0.013052417 -0.028824847 0.05106965 -0.009742991 -0.050082494 -0.061507355 0.02954237
0.017219488 0.005201641 0.040270917 -0.03144259 -0.024420468 0.06281096 0.013723658 -0.0076472415
-0.036458682 0.045109484 0.047346592 -0.029055089 -0.04325171 -0.01049464 -0.053495117 0.059931174
-0.027125241 -0.061810207 -0.022494799 -0.022113387 -0.013320838 0.002192479 0.004578314 -0.022947233
0.0010368396 -0.028724557 -0.009445772 0.047104254 -0.014429311 -0.043241315 0.030427296 0.022678928
0.04724547 -0.021302808 -0.017917283 0.0121312 0.018501332 -0.043779537 0.051426068 0.042724203
0.041916125 -0.035615496 -0.05299928 0.00963998 0.039628096 0.006371313 -0.060144056 -0.058699008
-0.06736795 0.007018065 -0.0019763692 -0.03185605 -0.020140128 0.00914716 -0.01982183 -0.023648804
0.021665622 0.043777864 -0.020473462 -0.025529686 0.01900231 -0.059306383 -0.042156212 0.0009694452
0.0024277163 -0.00015779585 -0.06208548 0.019551104 -0.024055488 -0.060552403 0.0045381933 0.029876497
0.023941604 -0.010660169 0.049364805 -0.030342765 0.04894147 0.004200849 -0.04362404 -0.042882327
-0.04294175 -0.04811055 0.0006142846 0.013730926 -0.04565332 0.033882312 -0.0062358356 0.00036004063
0.046330795 0.0010631606 -0.021910049 -0.039675023 -0.018530115 0.009251825 -0.05321604 0.005283816
-0.05669287 -0.049076177 -0.020294191 -0.03817399 -0.034290493 -0.018433062 -0.06968671 0.04460727
-0.036641356 0.03643483 -0.043166585 -0.036782708 0.041972492 0.018724816 0.0037255445 -0.03021693
0.04238709 -0.04934056 -0.030827992 -0.04197606 -0.053766415 -0.003601696 -0.06026021 0.011631802
0.006031323 0.021849785 -0.055630106 0.0119749075 0.031865638 -0.03385362 -0.040045146 -0.03205233
-0.03540505 -0.039479658 0.013212045 -0.003331243 0.020032734 0.005463906 0.052950017 -0.032853268
-0.016340874 -0.032120004 -0.014977567 -0.07128489 0.018223895 0.009111582 0.01999579 0.0064460263
0.049788818 0.051034033 0.009302809 -0.009994179 -0.009132824 0.0016349026 -0.029267661 0.019958932
-0.030454233 -0.0109888725 -0.023926716 0.05020931 -0.04084947 -0.012598179 -0.043264557 -0.031570934
0.0048404355 0.0040007825 0.0021674065 0.026435357 -0.03382401 -0.0051716277 -0.037549216 -0.04735084
-0.056210276 -0.056573156 -0.03709895 -0.027576141 0.01871287 0.02646944 -0.0048683286 -0.018588984
0.032685384 0.055295736 -0.032099996 0.018861758 -0.013002455 -0.05426593 0.014162622 0.03956216
-0.04239062 -0.046141513 -0.06455997 -0.057909742 -0.06904934 0.0117562665 -0.00084610283 -0.050697416

block2.0.bias f4 [256]
00000000: 30b3 c8bc 6344 debc ccaf 37bb 8c1c f6bc
00000010: a7bd 833d 526d 2a3d 84fe 933c 5ed7 15bd
00000020: 38c8 2dbc e3f9 303d 91ee 633d c1ec 4fbd
00000030: f076 22bd 2ff9 7c3d 405c d5bb d6cf 4fbd
00000040: 0ab0 2c3d bdd7 6cbc 49fe 2d3d 55a5 863d
00000050: 807f 413d f057 573d 1cc2 113d 7a85 893d
00000060: d467 60bd d2ab 463d ab37 7b3c 4776 23bc
00000070: b134 55bd 9cdd a6bc 8eae 7e3b e61a 1c3c
00000080: 3584 843d 89dd b63a 8af5 3bbd 0ed4 843d
00000090: 7c14 a43c d45a 203d 7f29 803c dcf3 b5bc
000000a0: 948f 503d dcf9 bfbc 63b6 493d c73d c63c
000000b0: 4be6 7e3d 6025 3bbc 0b2b f9bc 2aa5 4c3d
000000c0: 3822 013d 3411 13bd 16e5 2ebd a0af 813d
000000d0: 0943 a53b e58d 473d ffd7 5d3b c449 2fbd
000000e0: 1424 f6bc 0c9b 06bd 40c6 d53b 8f27 2b3d
000000f0: 0c40 ba3b de19 bc3c 2a94 f13c 9248 b6bc
00000100: cf2d 5f3d f505 bf3c ec45 22bd 7670 18bc
00000110: d4fd fa3c 371d f33c b328 9abc 3522 073d
00000120: 02c1 023d fab7 25bd 07f6 053d 6fb0 083d
00000130: fc40 2f3d 3ddc 9b3d 9958 7c3d 779b 1abb
00000140: 3b19 08bd 9627 363d 85e0 dc3c ae60 18bd
00000150: 27a1 afbc 987c e73c 3309 143d caf3 66bc
00000160: 9fe7 bfbb 7008 303d 2062 7dbb 3898 87bd
00000170: 44d2 02bd 81da 67bd 48d4 993c ac90 693c
00000180: 6c1e c9bc 6aa0 ac3c 159b 5f3d e058 90bc
00000190: 1420 793c 0a17 04bd cf7a 8d3b 1dfa 4abd
000001a0: a350 84bb b4d8 7e3c 3a11 35bd d062 a23c
000001b0: 0782 02bd 0195 ea3c fc51 533d 988c 27bc
000001c0: a019 343d 4a95 6fbd 09ec 843b d672 fa3b
000001d0: d40a a33c f0af 5abc 2903 5a3c f4f0 79bd
000001e0: 543e b0bc b0f7 f9bb c0fd c63b 256b 543c
000001f0: 7f65 3dbd 0230 5fbb f25b 863d 4ff9 9a3c
00000200: 3b56 813c 9079 2f3d 412e 3a3d 7c92 b4bc
00000210: e0bd 433d 835a 96bd ede8 4c3d 6ea9 31bd
00000220: e04b c6bb 0bdc 19bd 57e5 ea3c 12a4 d0bb
00000230: df15 18bd b73f 2ebd da7b 6bbd 3085 08bb
00000240: e097 983c 989e 49bd 7c5b 70bd 48c9 c6bc
00000250: b4e1 9fbc 0526 b0bc a6be 723c 7e8e 69bd
00000260: cff2 933d fdcd 90bc b3ce 8e3c d31f 3cbd
00000270: a33c b73c f84e 2dbd 9b2a 2f3d 9571 11bd
00000280: bb97 4b3d 4c33 c03c 1ebe 0dbc 34e3 143d
00000290: 9563 21bc 2c39 553d 4c0d e13c 37b1 5abd
000002a0: 8c92 03bd 37a8 8a3d 0eea 3ebd 7b2c 4c3d
000002b0: 1f68 3ebd a9b0 b13b b0c9 b83c 4fa9 5ebd
000002c0: 2e5a 323d 5708 c03c 6fc6 6a3b 02b5 debc
000002d0: 2a10 0dbc 7f85 dfbc a012 993c ec03 3f3d
000002e0: 6036 443b c1e4 06bd 4362 783b dc73 b8bc
000002f0: 3333 593d 2083 90bb 0a62 633c bdf5 7bbd
00000300: a499 113d d57c 8dbd c0f2 a23c 9c1c ae3c
00000310: 945c 2f3d 2565 a3bb 6951 52bd 4064 653c
00000320: a3e0 25bc e2f0 723d 1ee4 1bbd 6dd1 48bd
00000330: cc67 b43c d62e 5ebd 432e 77bc 41aa 31bd
00000340: 81b3 21bc 1600 873b 666a 63bd 4576 d93c
00000350: af3b fc3c 543b 0e3d b422 3bbb e7ae 5cbb
00000360: b852 a3bc 479b 44bd 3c7a 103d 6e95 19bd
00000370: b9dc 503d 0aee 1ebd e3d5 ec3b 05da b0bc
00000380: 452f 043c 9c39 bc3c f077 9c3b d1f3 00bc
00000390: 35da d4bc db35 413d 0ae1 49bd 7458 0fbd
000003a0: 6312 993c 0f6d b3b9 fc76 48bd ebff 5fbd
000003b0: 9b57 a53c bdee 1a3d 955a 1b3d 6984 9c3c
000003c0: 1415 303d 7b7c 80b8 8d56 c0bc a6a2 2fbc
000003d0: 9f1b 893d d84d 25ba 27fe 18bc 4251 28bd
000003e0: 30ed 58bd bcb2 08bd 7c97 5a3c b94f 89bd
000003f0: 596b e43c dc26 d7bc f7fa a0bc c6f5 b3bc
-0.024499506 -0.027132219 -0.0028028367 -0.03004291 0.06432658 0.041608162 0.018065698 -0.036582343
-0.010606818 0.04320706 0.055647437 -0.050762895 -0.03966421 0.061761077 -0.006511241 -0.050735317
0.04216007 -0.014455733 0.042478833 0.06574503 0.047240734 0.052574098 0.035585508 0.06714912
-0.05478652 0.048503704 0.0153330965 -0.00997693 -0.052052204 -0.020369343 0.0038861367 0.009527897
0.06470529 0.0013951521 -0.04588846 0.06485759 0.020029299 0.03914912 0.015644787 -0.022211008
0.050918177 -0.023434572 0.049246203 0.02419938 0.062231343 -0.011422485 -0.030416032 0.0499622
0.031526774 -0.035905078 -0.042698942 0.06332326 0.0050433916 0.048719306 0.0033850668 -0.042794958
-0.0300465 -0.032862708 0.0065238774 0.041785773 0.0056839045 0.022961553 0.029489595 -0.022251401
0.054487046 0.02331827 -0.039617464 -0.0093041565 0.030638613 0.029677017 -0.018818235 0.032991607
0.031922348 -0.040458657 0.032705333 0.033371385 0.042786583 0.076103665 0.06160793 -0.00235912
-0.033227187 0.044471346 0.026962528 -0.037201576 -0.021439148 0.028257653 0.036141586 -0.01409621
-0.005856469 0.042976797 -0.0038663223 -0.0662083 -0.031938806 -0.056604866 0.018777981 0.014255684
-0.02455064 0.021072585 0.054591257 -0.017620504 0.015205402 -0.032248534 0.0043176184 -0.049554933
-0.004037933 0.015554596 -0.04420588 0.019822508 -0.031862285 0.028635504 0.05159186 -0.010226391
0.04396975 -0.058491983 0.004056458 0.007643084 0.019902624 -0.013347611 0.0133064175 -0.061020806
-0.021514095 -0.0076284036 0.00607273 0.012964998 -0.046239372 -0.0034055714 0.06560506 0.018917708
0.015788188 0.04284054 0.045454267 -0.022042505 0.0477885 -0.073414825 0.050026823 -0.04337447
-0.0060515255 -0.037563365 0.02867381 -0.006367215 -0.037130233 -0.042541232 -0.05749116 -0.002083134
0.018627107 -0.049223512 -0.058680996 -0.0242659 -0.019516803 -0.021502504 0.014815962 -0.057020657
0.072240464 -0.017676348 0.017432546 -0.045928787 0.022367781 -0.04231164 0.04276524 -0.03550871
0.04970525 0.02346196 -0.0086512845 0.03634949 -0.009850402 0.052056476 0.02747216 -0.05339166
-0.03212218 0.06770366 -0.04660993 0.049847107 -0.046486016 0.005422671 0.02255711 -0.054360684
0.043543033 0.023441477 0.0035823842 -0.02718592 -0.008609811 -0.027285336 0.018685639 0.0466346
0.0029939637 -0.032933 0.0037900365 -0.022516184 0.053027343 -0.0044101626 0.013878355 -0.06151365
0.035546914 -0.069085754 0.019891143 0.021253876 0.0428129 -0.0049864226 -0.05134717 0.014000952
-0.010124358 0.059311755 -0.038059346 -0.04902785 0.02202215 -0.054243885 -0.015086713 -0.043375257
-0.009869457 0.0041198833 -0.05552139 0.026545653 0.030790178 0.03472455 -0.002855462 -0.0033673586
-0.019936904 -0.047999647 0.03527282 -0.037496023 0.050991748 -0.03880123 0.0072276457 -0.021588335
0.008067911 0.022976689 0.00477504 -0.00787063 -0.025982955 0.0471705 -0.04928688 -0.034996465
0.018685525 -0.00034222796 -0.048941597 -0.05468742 0.020183375 0.037825335 0.037928183 0.019106107
0.04298885 -6.126702e-05 -0.02347877 -0.010719931 0.066947214 -0.000630585 -0.009337938 -0.04109312
-0.052960575 -0.03337358 0.013341781 -0.06704659 0.027883219 -0.026263647 -0.01965092 -0.02196778

block3.0.weight f4 [256, 256]
00000000: 7145 95bb e4ec 97bc 8cee 31bd 8805 64bb
00000010: 75fd e53c f576 25bd c402 22bc d74f e23c
00000020: 0487 c8bc 590f 353d ed83 47bd b8fc cebb
00000030: 2e77 62bb f8b5 2e3d 4c01 11bd e295 1f3d
00000040: 7c49 503d 9117 38bd 72c0 e83c f075 683d
00000050: 2c8e 6f3c 2450 1d3d c3f2 333d 5cef 0ebd
00000060: 8356 6d3d b239 65bc e1a9 6abd a2d6 abbd
00000070: 7ee8 16bd b029 113c 71dc 27bd 9abe acbc
00000080: 3d52 16bd ce7f b63c 653e 2fbc db83 163d
00000090: 04cf ca3c ca23 ebbc 1ffb 143c 5632 05bd
000000a0: 7d40 18bb 421f 8dba a6b9 0ebc dae8 6cbd
000000b0: 31c6 28bd 1ae2 6abd cd85 34bd ebb4 05bd
000000c0: 04e0 0fbd 8e52 043a 8a45 2cbd 6c3f 1c3d
000000d0: 889d 63bc d287 77bd 30ad 283d 20f0 f33b
000000e0: c8de 0a3d d001 863b 36f6 c4bc b827 ae3c
000000f0: d045 88bd a26a 6abc 1b8a 2a3d bcc9 aabc
00000100: 2452 21bd d44f 5bbc 0d4e 163d 93ed 723b
00000110: 0c5c f9bc 8703 0f3d 4085 4b3d 3f78 0e3d
00000120: e7f3 5c3d 1661 debc 19e6 7abd 1604 863d
00000130: 1433 eebc d2ed 48bd 7b45 fabc 5765 87bd
00000140: 3e05 47bd fc20 22bd 5d1d 7bbc acaa 1d3d
00000150: 241c acbd c3c1 f1bb 0a43 423d b710 743d
00000160: 39bb 933c cdb6 493d 930a 9abc a032 1e3d
00000170: 123a 57bd 1f60 353d ca23 85bc ebd8 343d
00000180: 729b 14bd 0e30 89bd f1ca 1abd 1637 193d
00000190: 8134 1cbc 9f68 93bc 5a71 ee3c 39ed 12bc
000001a0: 8db9 4bbd 81b3 87ba f6ca 6e3d 623c 76bd
000001b0: d8b4 d33c 2efb 263c b28c 7bbd 0a2e 343d
000001c0: 3fda 68bd ac5b 483c 108c 283c b84d 97bc
000001d0: 9e1c 3f3d 0886 373d dc29 503c c434 193d
000001e0: 92c5 043d 508b 6abd 7874 2a3d 29d8 e3bc
000001f0: 00e7 96bb acce 813c 4667 2c3c 4635 e3bb
00000200: 805b 30bd e193 1e3d 0a64 51bd b839 1fbd
00000210: 1bb2 b0ba 702a 8cbc c16d 0fbc 62fa 163d
00000220: a3f0 393c eb49 2cbd 735f 863c 0c2f bfbc
00000230: 6d0e 463d 22fc cabc d8ff 893c 15b1 df3c
00000240: bbf7 50bd b460 d1bc 0200 313d 4f3e 623d
00000250: f66d 65bd b7e9 f23c f31f e03c 75a0 623d
00000260: 6726 5bbd 6ef2 16bd bffe 57bd 4ee4 7b3b
00000270: ecf5 a23c b2ba 1bbd d2f8 043d b66f 443d
00000280: 087e 78bd d0ef f33b c738 6abd 7cd0 513b
00000290: 07a2 60bd ccc4 19bc 267f 1abd 7cf2 aebd
000002a0: bd42 61bb 7890 02bd 5c32 36bd 0bc6 15bd
000002b0: 474f b1bb 7bbb 8dbd d95b 453d 20d7 6d3c
000002c0: 0c27 5abc 6e58 98bc 6371 9a3b 2aaa efbc
000002d0: 30e2 67bd ac8d afbc 2727 c5bb c58d 7bbd
000002e0: 5e30 39bd 2121 a9bd 18e6 3cbd acf4 0bbd
000002f0: 900d 4a3d 9e53 123d 6e00 d63b 8bf1 16bd
00000300: 8472 233d 0ac9 053c 05fb dbbc cc88 43bd
00000310: 5a1e d0bc caed ff3c 700f dfbb 08fb 1fbd
00000320: e8b8 68bd fe00 bcbd 7fee 62bd f09c 533c
00000330: 309a 213d 70ec d13c 5ae9 57bc 71e5 d53c
00000340: 8c66 153d 3f8d 2bbd c066 f2ba c127 b0bb
00000350: 2745 7b3c 5632 283d f299 bcba 25b3 a93c
00000360: 8f8b c3bc 745a 243d 9816 53bc e214 803c
00000370: e4ba 6f3c e39a 243d b4b9 54bd f431 23bd
00000380: bad2 01bc d403 b53c 0ce7 6c3c 9e1c 24bd
00000390: 23ad 4e3d 66a3 b2bc b9d9 d0bc 5180 ac3b
000003a0: ca2d a0bd 4e23 08bd 760f a8bc 8691 2d3d
000003b0: 5991 5ebd 3ac1 86bc 8344 d3bb 70b6 7abc
000003c0: b4b1 62bd f3bd 3abc 06c5 d3bc 633d 7ebd
000003d0: a144 773d a542 15bd 60e0 44bd 6ad0 783c
000003e0: 9245 233d 2e4b 3ebd 5321 353c 51d4 653c
000003f0: a4f9 78bd f917 a63b b2ac a1bc 401b 9bba
-0.004555397 -0.018545575 -0.043440387 -0.0034793336 0.02807496 -0.04039665 -0.009888355 0.027625961
-0.024478443 0.04420409 -0.0487098 -0.0063167475 -0.00345559 0.042654008 -0.035401627 0.0389613
0.05085133 -0.04494435 0.028412078 0.0567531 0.014621299 0.038406506 0.043932687 -0.03489624
0.057943832 -0.013990806 -0.057290915 -0.08390547 -0.036842816 0.008860037 -0.040981714 -0.02108698
-0.036699522 0.022277739 -0.010696028 0.03674684 0.024756916 -0.028703589 0.009093075 -0.032518707
-0.0023231797 -0.0010766762 -0.008711254 -0.057839252 -0.041204635 -0.057344534 -0.044072915 -0.03264324
-0.035125747 0.0005047702 -0.042058505 0.03814642 -0.013892539 -0.060432263 0.04118079 0.0074443966
0.033903867 0.0040895715 -0.024043184 0.021259174 -0.06653941 -0.01430765 0.041635614 -0.020848148
-0.039384976 -0.013385732 0.03669553 0.0037067875 -0.0304394 0.034915473 0.049687624 0.034782644
0.05394354 -0.027145904 -0.061254594 0.06543748 -0.02907709 -0.049054928 -0.030550709 -0.06611126
-0.048588984 -0.039582238 -0.015326825 0.038492844 -0.08403805 -0.0073778345 0.047427215 0.059586253
0.01803361 0.049246598 -0.01880387 0.0386225 -0.052545615 0.04428112 -0.016252417 0.04415218
-0.036281057 -0.06698619 -0.037791196 0.03740605 -0.009534002 -0.017994223 0.029106785 -0.008967691
-0.049737502 -0.0010353179 0.058299027 -0.06011618 0.025843069 0.010191722 -0.061413474 0.04398922
-0.05684876 0.0122288875 0.0102873 -0.018469676 0.04665815 0.044805557 0.012705293 0.037403837
0.03241498 -0.057261765 0.04161498 -0.027813034 -0.004605174 0.01584562 0.010522669 -0.006933841
-0.04305601 0.038715247 -0.051120795 -0.038873404 -0.0013480814 -0.01711008 -0.008754195 0.036859877
0.011348876 -0.04206268 0.016402936 -0.023337863 0.0483536 -0.02477843 0.016845629 0.027306119
-0.051017504 -0.025558807 0.043212898 0.055235203 -0.05601307 0.02965246 0.027358985 0.055328805
-0.05350342 -0.036852293 -0.05273318 0.003843564 0.019892655 -0.038019843 0.032463856 0.0479581
-0.060667068 0.0074443594 -0.057183053 0.0032015136 -0.05484202 -0.009385299 -0.037718914 -0.08542344
-0.0034372055 -0.031876057 -0.04448162 -0.03656582 -0.005411062 -0.06920525 0.048183296 0.014516622
-0.013314974 -0.018596854 0.004713224 -0.029255945 -0.056612194 -0.02142986 -0.00601663 -0.0614145
-0.045212142 -0.08258272 -0.046117872 -0.034168884 0.04932934 0.035724275 0.006530813 -0.036851447
0.039904132 0.008165607 -0.026853094 -0.04773788 -0.025405098 0.031241316 -0.00680726 -0.03905776
-0.056816965 -0.09179877 -0.05540323 0.012915835 0.039453685 0.025625437 -0.013178194 0.026110383
0.03647475 -0.04188275 -0.0018493757 -0.005375833 0.015336311 0.04106363 -0.0014389141 0.020715306
-0.023870258 0.040125325 -0.012883805 0.015634958 0.014631961 0.040186774 -0.051934913 -0.03984256
-0.007923776 0.022096552 0.014459383 -0.040066354 0.050458085 -0.02180643 -0.025494443 0.00526432
-0.078212336 -0.033236794 -0.020515185 0.04237511 -0.054337833 -0.01644956 -0.006447376 -0.015302286
-0.055345252 -0.0113978265 -0.025850784 -0.06207026 0.060368184 -0.03644051 -0.048065543 0.015186409
0.03986127 -0.046458416 0.011055308 0.014027671 -0.06078495 0.0050687757 -0.019735668 -0.0011833683

block3.0.bias f4 [256]
00000000: 55ef 7cbd 8bb5 433d fce9 adbd 6d13 27bd
00000010: 9496 353c 0d06 623d 6346 e2ba cfb6 14bd
00000020: 90f4 91bc b24c 65bc 32cf 8ebd be4d c2bc
00000030: 5627 dabb a6ba 5fbd a33e e9bc 9979 efbb
00000040: a96a 2dbd 4db3 8b3d b3d6 8e3c b770 78bb
00000050: 4b71 0f3c 2e7f dbbc 264a 04bd f355 8f3c
00000060: 98bc 6a3d ad2c 553d dd0a e6bc 316b 76bc
00000070: 292d edbc bca8 05bd 3a94 e1bc e643 36bc
00000080: a4d2 6fbb 2e03 933d c408 2a3b 4683 bd3d
00000090: 7996 20bc 6ad0 75bd 077f 35bc e00e 87bd
000000a0: 67dd 913c 7dcf 183d a5c8 803c 2315 033d
000000b0: de41 6bbd 2de5 17bd 91a2 163c 07fe 583c
000000c0: 110c 9b3c 03e6 6fbc 1cf6 343d c785 9d3b
000000d0: 40db ba3c b15b 0fbd 0820 173c 661e 003d
000000e0: 8795 0bbd cd93 64bd a9f4 1f3d 5e7b 253d
000000f0: 8c3d 84bd 38a0 a13d 2006 a53b a016 cb3c
00000100: 893b 293d e8cc 903d 291b a1bc 03c1 46bd
00000110: e907 f83b 0530 11bd bcdf 213d 0049 0fbd
00000120: fba4 ca3b c5ce 893d 1ea7 49bb c78d 39bd
00000130: 0366 48bc b2b5 8f3d 28f0 ec3c f807 563d
00000140: a763 cc3c 2873 6c3a 98e1 5fbd 9cc0 133d
00000150: 5ef9 92bb 5780 ddbc c3c1 d3bc d239 0fbd
00000160: 72d5 ccbc ccd3 30bc 41f9 20bc 5225 5fbd
00000170: d180 35bd 95a7 9abb 9373 4c3d ba48 2d3d
00000180: f2b1 64bd 201c fbba cd35 89bd e82b 133d
00000190: 9ac4 9ebd 83b1 2ebd e700 87bc 7e3c 3c3d
000001a0: d365 233d dcf8 3dbb b56c 983d 1d7f 693b
000001b0: a1fe 28bd 1937 99bd f5cc 423d e7ae 2bbd
000001c0: de49 b03d bbaa 343d dbe4 7cbd 3d49 173d
000001d0: 9812 55bc e346 51bc 669a 5dbc 87e7 483c
000001e0: 8cc1 44bc aa0d d33c ef0c bb3d ad52 cc3c
000001f0: 0bd1 c9bd b16e cdbc 4b8a b03c 8224 223b
00000200: f81d b4bd e908 ec3c 10d3 95bd 5c64 853c
00000210: fbfb 993d f2d8 80bd ca8c 3dbd 9fbe 003d
00000220: f903 693c edb9 713b 0197 8a3d 0128 1bbc
00000230: f825 09bd bdfd a4bd 8247 d7bb 0a07 1f3d
00000240: 8d44 7dbd a69d 91bc d0e0 ac3d 2a59 72bc
00000250: 1d39 6c3d bd3d a8bd b1c9 663d d9ba 803d
00000260: 7e00 abbc e71a 81bd 4ea7 e63c f7bf 4e3d
00000270: dceb 3b3d 8b51 613d f9b2 1c3c d9cd 223c
00000280: dc2c 96bd 1367 653d c490 88bd ef75 343c
00000290: 271d a63c a069 403d 506d 9fbd f90d 593d
000002a0: aa86 22bc b39b 913d acc3 ec3b 6bc4 113d
000002b0: 3c53 c1bb 4e1e 6abc 4301 933d 4269 913d
000002c0: 836f 603d 6c8d aabc 0249 533d 5b1f 163c
000002d0: f4c9 be3c d3ce 2abd 68da 933c 40b4 7cbd
000002e0: 17a4 55bd 76c5 c6bc 2217 f6bc 4f7e 933d
000002f0: da6d 893d 7f79 20bd 1654 9f3b 1206 b53d
00000300: f6fb 2e3d 4736 60bd 4ce9 8abd 696b 4ebd
00000310: 2bac a13c 10b3 87ba 0cb2 8bbd 00cb f1bc
00000320: c38b 603d 9133 a03d f8ce 903d b3d3 5dbd
00000330: d97e 49bd fc12 1c3d 16f2 953c f433 7cbd
00000340: 811f 6fbd 3074 5dbc 8d3b 113d 9a51 82bd
00000350: bd83 373d 8be5 173d 705c da3c 5841 07bc
00000360: e786 96bd 0bc4 0dbd dbac 82bd f42a 8fbc
00000370: cffe b13b ea11 fd3c bdfb 0ebb 9a99 f5bc
00000380: 2d76 7cbd 68fd 83bd d692 2ebb 3a02 273d
00000390: d40b 32bd 8900 0a3d 698a a83c 1a32 dfbc
000003a0: 5b08 f0bc 5a7c e73c 8e5c 28bd 5d32 8a3a
000003b0: 0253 43bd 0ae3 2d3c 40be 79bd cfa7 32bd
000003c0: bed3 8abb 8d1e 663d dd01 7bba 6c6e 8b3d
000003d0: bcf0 42bd 56ac b7bc aa18 ad3a 5d40 193c
000003e0: e653 91bc 7926 59bd 0f8f cebc cb7a e7bc
000003f0: cab0 883c b4bd 9c3b 2b1d a63d f44c 043d
-0.061751682 0.047780555 -0.084918946 -0.04079001 0.011083264 0.05518155 -0.0017263409 -0.036307152
-0.017816812 -0.013995336 -0.06973113 -0.023718711 -0.0066575212 -0.05462136 -0.02847225 -0.0073081967
-0.042338047 0.06821308 0.017436361 -0.003790898 0.0087550385 -0.026794042 -0.032297276 0.017497038
0.057308763 0.05204456 -0.028081352 -0.015040205 -0.028952198 -0.03263162 -0.0275365 -0.011124587
-0.0036594057 0.07178341 0.0025945166 0.09253554 -0.0098015005 -0.060013212 -0.011077649 -0.06594634
0.017805768 0.03730725 0.015720675 0.03200258 -0.057435863 -0.037083793 0.009194032 0.013244159
0.018926652 -0.014642241 0.04418002 0.0048072073 0.022809625 -0.034999553 0.009223945 0.03127899
-0.034078147 -0.055805016 0.039051685 0.040400855 -0.06457052 0.078918874 0.0050361305 0.024791062
0.041316543 0.07070333 -0.019666271 -0.048523914 0.0075693023 -0.035446186 0.03952001 -0.034981728
0.006184218 0.06728891 -0.0030769776 -0.045301225 -0.012231353 0.070170775 0.02892311 0.052253693
0.024949862 0.0009019845 -0.054658502 0.03607236 -0.0044852933 -0.027038736 -0.025849229 -0.03496725
-0.025004122 -0.010792684 -0.009825052 -0.05447895 -0.044312302 -0.0047196844 0.049914908 0.042305686
-0.055833764 -0.0019158162 -0.06699715 0.035930544 -0.077523425 -0.042649757 -0.016479922 0.045956127
0.03989203 -0.0028987443 0.07442609 0.0035628744 -0.041258458 -0.07481212 0.047558744 -0.041914847
0.08607839 0.044108134 -0.06174169 0.03693508 -0.013004921 -0.012773248 -0.013525581 0.012262232
-0.012009036 0.025763351 0.09133326 0.024941767 -0.09854325 -0.025077196 0.021550318 0.0024740999
-0.087947786 0.028812842 -0.073156476 0.016283207 0.075187646 -0.06291379 -0.046276845 0.03143179
0.014222139 0.0036884502 0.06767083 -0.009469987 -0.033483475 -0.08056209 -0.0065698037 0.038825072
-0.061832953 -0.017775368 0.08441317 -0.014791766 0.057671655 -0.08214901 0.05634469 0.06285638
-0.020874258 -0.06303959 0.028155949 0.05047604 0.04587923 0.055009406 0.009564155 0.009936773
-0.07332775 0.056006502 -0.06668237 0.011014446 0.020277573 0.04697573 -0.077845216 0.05299184
-0.009919802 0.071097754 0.0072254743 0.03558771 -0.005899815 -0.014289452 0.07177975 0.071001545
0.054793846 -0.020819388 0.051583298 0.009162749 0.023289658 -0.04170115 0.01804848 -0.061695337
-0.05215844 -0.024264079 -0.030040327 0.07201826 0.06710406 -0.039178368 0.0048623187 0.088390484
0.042720757 -0.054739263 -0.06782779 -0.050395403 0.019735416 -0.0010353047 -0.06821069 -0.029515743
0.054820787 0.078223355 0.07070726 -0.05415697 -0.049193237 0.038104042 0.018303912 -0.061572984
-0.058379654 -0.013516471 0.035457183 -0.063632205 0.04480337 0.037084144 0.026655406 -0.008255325
-0.07349949 -0.03461079 -0.06380626 -0.017476536 0.005431987 0.030892331 -0.0021817528 -0.02998047
-0.06163614 -0.06444818 -0.0026637814 0.040773608 -0.04346831 0.033691917 0.020573812 -0.02724557
-0.02930086 0.028257538 -0.041103892 0.0010543574 -0.047686584 0.010613212 -0.060972452 -0.043617066
-0.0042366674 0.05618148 -0.0009575168 0.06808171 -0.047592863 -0.022421043 0.0013206203 0.009353724
-0.017740201 -0.053015206 -0.0252147 -0.028256794 0.016685862 0.0047833566 0.08111032 0.03229995

end.0.weight f4 [2, 256]
00000000: 6f1a 14bc e3fc ce3c cc9d 12bc 6a5b 033f
00000010: 5f25 06bd d2a2 623d 0f1f 293c e07a 9abd
00000020: 7981 26bd 5690 0fbd e31d 2dbb 2891 debc
00000030: 95e8 46bd 08c2 01bd 6ab1 99bc 5a68 0b3d
00000040: 20c1 17bb 7377 353d 98d1 a93d 21cd 2d3c
00000050: a532 32bd 27c2 df3b bd8d 9d3b 9884 a639
00000060: 482b 93bd e07c 24bc 42ff 3b3c d495 8dbd
00000070: 94cc d7bc 601f 6abb e34a c5bd 31e3 4dbd
00000080: bd24 803d e5fb 83bd 6c02 1cbd 5060 bbba
00000090: 8a26 04bd 720e f63c ad70 00bc 08df 2ebd
000000a0: 4eb5 64ba 2163 b3bc 1251 debd 423b 30bb
000000b0: 234c f0bc 2ea4 a9bc 8b36 453c 5ff3 c3bc
000000c0: bdf3 bbbb bc1a c1bd aaa3 333d 3c86 0bbd
000000d0: 247a 183d 07df 44bc 2a9b 74bd 5799 f7bb
000000e0: 25ec 1d3b fa08 993a ff1e aa3c b736 8fbc
000000f0: 6df2 e53a 0a38 a73d 3c85 033d 3a48 c43c
00000100: 885b 713c f33a acbe 9b52 a7bc fa60 99bc
00000110: d3c0 08bd 1f34 5dbd 8e13 33bb 9ac1 183c
00000120: bee2 adbb 2111 9d3d 0ddd 48bc 8ea3 343c
00000130: 2a0f 20be 01c7 b8bd 78c9 cbbd 00b9 633e
00000140: 1b78 bc3c 04a7 57bf dfef 9ebc 959f 78bc
00000150: 3b10 0d3d b9fc 45bd 4d11 793c 62fe 1cbd
00000160: 3efa 923d 07bf 023b cfb3 6fbe c4fd 833c
00000170: a231 153c 50cb 8a3c 1a13 363e ba2b f3bc
00000180: bcb5 8abd c0b3 343b 07f9 463b 7811 ce3c
00000190: 9e41 5c3d cd95 e13a b8f1 bc3c 7faf 00bc
000001a0: 95e1 d1bc 06fe 34bc 5dd0 ba3d a848 0b3d
000001b0: 9b8d 193b a6b0 1dbd 9ae8 683c 8e23 e0bc
000001c0: 8051 b1ba 622c 9d3d 1b18 4bbf d042 a73d
000001d0: c8ad afbc 465f 81bd f889 473d 90e8 7abd
000001e0: 2461 3ebc c1a7 aebd 1857 a73d 115a 693d
000001f0: 2e90 68bc d87a ed3e 99d4 f3bc 6112 8c3c
00000200: 2050 9e3c b89f 5ebd a609 86bc c5a5 b73a
00000210: 96c6 bfbd ff57 813a 19a9 1c40 1068 213b
00000220: 729c 81bc 9a61 e3bc bc46 25bd 89eb a93d
00000230: 506b ffbb e2d3 f83b abe7 cf3c 80d3 863d
00000240: fcc2 da3c 36ec 0bbd 8308 c73c 4dad 3d3c
00000250: d5d0 96bc b52e e13f f42f 443c 8973 a2bc
00000260: 01df 3dbe 9b5c 1e3c 1253 a9bc 176c aebb
00000270: 532d 61bd 2448 aabc 610f 783c 8b5f 173c
00000280: 4978 4dbd a27a d1ba 0c8c 04bd 424d b53e
00000290: 0046 4bbd 6ecc a7bc 81a8 9f3c bf45 5f3d
000002a0: fbe3 95bb 271b 423c c527 aabc 5027 0fbd
000002b0: b16b 0b3c 0a44 df3b 4e9f ddbc 02e1 a9bb
000002c0: aba2 9a3d 2c26 f43c acab 703c da18 9d3b
000002d0: 5e44 d73d d950 0e3d f2f5 38bd f7d3 47bd
000002e0: fe33 1abd 25a6 f83c 100c 93bb b9fb ff3b
000002f0: 6125 8a3d ffac 1d3d 1c33 debc 998b a03d
00000300: 14b5 adbc d6d1 883c 1ea5 41bd 3a5f 553d
00000310: e83b a33a db33 b7bc e1cd 40bd 3014 f5bc
00000320: 58c9 e73b b74f a63d c16a 993d ba1b 333d
00000330: f757 423d e2a8 ff3c 7859 52bd 852d c73c
00000340: fe48 9dbb 6569 df3b 837d f13b 7b71 4bbd
00000350: a6a5 a6bc 3adb a53c 31fc 283c d671 953b
00000360: 46d8 f33c eec8 73bb a3d6 e8bc 8154 783c
00000370: f97d fc3b 6060 6c3c 4d85 a23f f40b fcbb
00000380: ed7d fb3d 667c 803c 0bb5 5bbc 4bb4 2e3c
00000390: 43eb 57bd caa9 e7bc 6995 1c3d 9dc3 093c
000003a0: fd70 5dbc 0d60 4c3d 0e36 9bbc debe 533d
000003b0: 914b 41bd 9857 b53b b4fe 93bc 491c 30bd
000003c0: 04f3 7fbc 4d4c b8bd 68c8 55ba 9cdd 3bbd
000003d0: 0c33 d13b 0e5f 1ebd 1cc1 fc3c 3161 a53d
000003e0: 5123 34bc 34f0 743d 08a3 60bd 271a 1e3d
000003f0: a569 83bd 44d1 39be 2a7a 783d 8d23 433d
-0.009039505 0.02526707 -0.0089487545 0.5131136 -0.032750484 0.05533106 0.010322346 -0.07542968
-0.04065082 -0.03504976 -0.002641552 -0.027168825 -0.04856165 -0.031679183 -0.018761355 0.034035064
-0.0023155883 0.04430337 0.0829193 0.010607989 -0.04350533 0.0068285647 0.0048081563 0.00031760777
-0.071859896 -0.010039538 0.011474432 -0.06913343 -0.026342668 -0.0035724267 -0.09633424 -0.050265495
0.06257007 -0.064445294 -0.038088247 -0.0014295671 -0.032263316 0.030036185 -0.007839364 -0.042693168
-0.0008724526 -0.021897854 -0.10855307 -0.002689079 -0.02933318 -0.02070817 0.01203693 -0.02391976
-0.005735843 -0.09428927 0.043857254 -0.034063563 0.037225857 -0.0120160645 -0.05971829 -0.0075561213
0.0024097052 0.0011675649 0.020766733 -0.017482145 0.0017543562 0.081649855 0.032109484 0.023960222
0.014731295 -0.33638725 -0.020425132 -0.018723 -0.033387017 -0.054004785 -0.0027324888 0.009323502
-0.005306571 0.07669283 -0.012259734 0.011025323 -0.15630785 -0.09022332 -0.099505365 0.2223854
0.02300649 -0.8423922 -0.019401489 -0.015174766 0.034439307 -0.04833672 0.015201879 -0.038328536
0.07176636 0.0019950287 -0.23408435 0.016112216 0.009106072 0.01694265 0.17780724 -0.029683936
-0.06772944 0.002757296 0.0030360834 0.025154814 0.053773515 0.0017210782 0.02306448 -0.0078543415
-0.025620261 -0.011046892 0.091217734 0.034004837 0.002343035 -0.038498543 0.014215613 -0.027360704
-0.0013528317 0.07674481 -0.7933366 0.0816704 -0.02144517 -0.06317 0.04871556 -0.061256945
-0.01161984 -0.0852809 0.08170909 0.05697066 -0.014194531 0.46382785 -0.02976446 0.017098607
0.019325316 -0.05435154 -0.016362023 0.0014011195 -0.09364049 0.0009868144 2.447821 0.0024628676
-0.01582167 -0.027756501 -0.04035066 0.08296878 -0.007794775 0.007593618 0.025379023 0.06583309
0.026704304 -0.034160815 0.02429605 0.011576963 -0.018410126 1.7592379 0.011974324 -0.019830482
-0.185421 0.009665634 -0.020669494 -0.005322944 -0.054974865 -0.020786352 0.015140385 0.009239088
-0.05016354 -0.0015981982 -0.03236012 0.35410506 -0.049627304 -0.020483222 0.019489529 0.054509874
-0.0045742965 0.011847294 -0.020770917 -0.0349496 0.008509562 0.006813531 -0.027053501 -0.0051842937
0.07550558 0.029803358 0.014689367 0.0047942223 0.10511087 0.03474507 -0.045156427 -0.04878613
-0.03764724 0.030352661 -0.004487522 0.00781199 0.06745411 0.03849506 -0.02712398 0.07839126
-0.021204509 0.01670162 -0.04727661 0.05209277 0.0012453767 -0.022363594 -0.04707134 -0.029916853
0.0070735626 0.08120673 0.07491065 0.043727614 0.04744717 0.03120846 -0.051354855 0.024313698
-0.004799961 0.006817984 0.0073696985 -0.04966877 -0.02034266 0.020246137 0.010314033 0.0045606894
0.029766213 -0.003719862 -0.02842266 0.015156866 0.007705447 0.014427274 1.269693 -0.0076918546
0.12279878 0.015684318 -0.013409863 0.010663102 -0.052714597 -0.028279204 0.038228426 0.008408454
-0.013515708 0.04989629 -0.018946674 0.051695697 -0.047191206 0.0055341236 -0.018065788 -0.042995725
-0.015621904 -0.08998928 -0.0008155168 -0.04586564 0.006384259 -0.03866487 0.0308538 0.080751784
-0.010994748 0.059799388 -0.05484298 0.03859916 -0.064166345 -0.18146235 0.06066338 0.047641326

end.0.bias f4 [2]
00000000: 15d2 e03b ae24 ce3b
0.006860981 0.0062909937
